data.pth (torch, 5399 bytes, 6 tensors)

l1.weight f4 [8, 60]
00000000: b1cd c13d 7e54 c83e 2d6f a03e ee0a a4be
00000010: 0086 65be dc58 aebc fb41 373f 6655 703f
00000020: aedd be3e 701a 463f 1362 113b 83ce 803e
00000030: 506e 8b3e de2a b63d a8bd 87be 76e7 c8bc
00000040: e567 81be 3005 6d3e 7dcf 3dbe 45b7 9c3e
00000050: e495 22bd 15d5 083e 733d 9b3e 1dd5 163f
00000060: 83e8 713e 726f d43d 9ed2 3e3e aa7b 1dbf
00000070: bb2a a1bd 443d 7bbf ad04 b0bd 04ab 8ebd
00000080: cfef c83e cc6d 6f3f 7287 1dbf 6c65 0dbd
00000090: 3276 bfbb 367b 12bd ecff 8abe 2946 7a3f
000000a0: 9c4a 933d fb9f 83be 4662 8d3f 75e6 fcbc
000000b0: 1431 e2bd 9a2d f33e d87e bb3e e685 1dbf
000000c0: 5372 323e c43b b1bd 8d9a 483f 6dac bdbd
000000d0: d27d 483f 35f8 a13d 9a9c cabe e279 713e
000000e0: d1eb eb3e 4563 aabd 11f5 cabb c81e f5bd
000000f0: bbed 683b cb4b 0ebf 0774 833e 99ee 313f
00000100: 3f55 f9be 8590 b53e c2b0 423f ef2c 7f3f
00000110: bc8f 6b3e 91a5 5a3f eaee 15be d9e8 6f3f
00000120: a48b 5d3e aaa5 543e d271 b0be f720 c4bd
00000130: 5bd3 00bf dbd9 36bf 666b c8be 81d1 3cbf
00000140: 7b05 c93e a7f6 48bf 4dd3 46bf 1897 0d3b
00000150: cede e53e 0e8b 83bd 9754 83be 82d4 9a3d
00000160: b90a 0f3e 1cda 96bd 87e3 1dbe bcf4 b93e
00000170: c1bc b93e 2aca b13f dc12 ee3d 6f5c b83e
00000180: a808 603e 428e 2dbe 6a2b 483f 3b83 9c3f
00000190: 7936 28be 1ea5 8dbd a1c2 83bf 7235 a93e
000001a0: d754 413e e115 133f 0309 863e 02e6 07bf
000001b0: 4a4c a43e 6bb1 603e bbcd cf3e 7250 cb3e
000001c0: b138 b93e c697 12be 842a 373e 1303 eb3d
000001d0: 00cf 3d3e 260c ca3e 563a 6cbd 9b52 953e
000001e0: fe3d b8bd 0657 1d3f 9162 9b3d f99e 8c3f
000001f0: 83e8 2ebf e05c 723e 9e00 e73e 1ba3 aa3e
00000200: 7934 3ebf bf9d 963e cdf4 47be 0cac 273f
00000210: bb51 293e 66db febd 91ed 3a3e a9cb 23be
00000220: 6538 2ebf 2574 4b3f dabf 79be 5b88 803f
00000230: c45c 29be ba8e 643f 7fd4 733f 5fe9 e43e
00000240: 9132 963e 1a1e c93e e5fa 983e 3ff0 513f
00000250: a5a9 653e 68aa 42bf bec0 edbe 6575 ad3e
00000260: 1eae 0d3e 053e 3fbf 719c 4e3f 538e 38be
00000270: 2998 653e 927d ec3d f769 953f 219a ad3e
00000280: bb7e 80be 5adc 1d3e 1e90 39bf 8fca 8ebd
00000290: dc92 663e 5f92 ec3e 9a14 39bf b5dc ebbe
000002a0: 2a78 953e a087 c33d 3e32 173f 1b19 b23e
000002b0: 691e 2d3f 4356 87be 9e25 473f a5b9 e53d
000002c0: 13f3 033e 8bb9 003f a403 0b3e ed61 a53c
000002d0: cf5f 6c3e 8563 cfbd 5e81 a7bd 2263 b53e
000002e0: 9961 623f 7222 ccbd de70 1dbf b58d 90bf
000002f0: 38b2 acbd 28ad 03bf 375a 233f f3af e23d
00000300: 9197 4abe 0e4b 0b3f 4553 913e ff9f 003f
00000310: e220 703f 5e93 debe 538b 933e 0eaa 0dbf
00000320: e0f4 f23e f682 2cbf 5c79 07bf b5ee eabe
00000330: 8620 d5bd c28d a83e 7b91 9bbc 22c2 283f
00000340: 10f0 983e 8388 643f 8632 e13e 874a 443e
00000350: 99f9 c3bd 439b da3e 5218 5d3f bcd6 2f3f
00000360: e978 be3e 8bbb 8e3e f059 b53e 4b25 8abf
00000370: df42 e33e 3fdb b23e 3991 8abf 84ca 2a3f
00000380: 5389 f43d 52d9 3ebf e674 3fbd f72d d73f
00000390: b05e c63d 4802 c73e d4c4 0bbf 1746 a73d
000003a0: bec3 eebe 8f10 95bc 8718 2d3f 3c99 c8bd
000003b0: 289c 86bd 67a0 193e 4824 883f d4eb f53e
000003c0: ecb6 633e fe08 0ebf 5e46 23be 22d0 463e
000003d0: 4ccb 353f 05c5 933e 7f36 343e 76b8 8b3e
000003e0: 247c 783f 0541 893e e96f 093f d919 9ebe
000003f0: 9c0c 11be d2a4 1d3e 1aa2 52bd 3181 373f
0.09463061 0.39126962 0.3133482 -0.3203959 -0.22414398 -0.021282606 0.71585053 0.9388031
0.37278503 0.7738409 0.00221837 0.25157556 0.272326 0.08894895 -0.26511884 -0.024524432
-0.25274578 0.2314651 -0.18536182 0.30608574 -0.039693728 0.13362534 0.3032032 0.58918935
0.23623852 0.10372819 0.18635032 -0.6151682 -0.07869478 -0.9814036 -0.08594642 -0.069662124
0.3924546 0.9352691 -0.615348 -0.03452055 -0.0058429474 -0.035762034 -0.27148378 0.97763306
0.07191965 -0.25707993 1.1045616 -0.03087161 -0.11044517 0.4749573 0.36620212 -0.6153244
0.17426424 -0.086539775 0.78360826 -0.09261403 0.78316987 0.0790867 -0.39572603 0.23581651
0.4607835 -0.083197154 -0.006193765 -0.11968762 0.003554209 -0.555844 0.2567446 0.69504696
-0.4869785 0.35461822 0.7605096 0.9967794 0.23004049 0.85408884 -0.1464192 0.9371467
0.216353 0.20766321 -0.34461838 -0.095766 -0.503225 -0.7142617 -0.39144439 -0.7375718
0.39261994 -0.7850136 -0.7766617 0.0021604951 0.4489655 -0.06423007 -0.25650474 0.07560064
0.13968934 -0.0736582 -0.15418826 0.3631953 0.3627682 1.388982 0.11624691 0.3600802
0.21878302 -0.16948798 0.78191245 1.2227548 -0.1642703 -0.06916259 -1.0293771 0.33048588
0.1888002 0.5745526 0.2617875 -0.5308534 0.32089454 0.2194268 0.40586647 0.39709812
0.36176065 -0.1431571 0.17887312 0.11475196 0.18535995 0.39462394 -0.05767282 0.29164585
-0.08996199 0.6146091 0.075871594 1.0986015 -0.68323535 0.23668242 0.45117658 0.33327565
-0.74298817 0.29417226 -0.19526978 0.654969 0.16535084 -0.12444191 0.18254687 -0.15995659
-0.680548 0.794741 -0.24389592 1.0041612 -0.16539294 0.89280283 0.9524612 0.44709298
0.29335454 0.39280778 0.29878917 0.8200721 0.22427996 -0.7604127 -0.46436113 0.33878627
0.13835952 -0.7470401 0.8070746 -0.18023042 0.22421326 0.11547388 1.1672963 0.33906654
-0.25096688 0.15416089 -0.7248553 -0.06972229 0.2251696 0.46205422 -0.7229706 -0.46066824
0.2919324 0.09547353 0.5906104 0.3478478 0.6762453 -0.26433 0.77791774 0.112170495
0.12885694 0.50283116 0.13575608 0.020188296 0.23083423 -0.10126404 -0.08178972 0.35427195
0.8843017 -0.099675074 -0.61500347 -1.1293246 -0.0843243 -0.5143609 0.6380953 0.11068716
-0.1978438 0.544114 0.28383842 0.50244135 0.93800175 -0.43471807 0.28817233 -0.5533761
0.4745245 -0.6738733 -0.52919555 -0.45885244 -0.10406594 0.32920653 -0.018990269 0.65921223
0.29870653 0.892708 0.4398386 0.19169055 -0.09569091 0.4269658 0.86365235 0.68687034
0.37201622 0.2787746 0.3542018 -1.0792631 0.44386956 0.34932896 -1.0825568 0.66715264
0.11940255 -0.74550354 -0.046742342 1.6810902 0.09686029 0.38868928 -0.5459721 0.081676655
-0.46633714 -0.018196372 0.6761555 -0.09794852 -0.06572753 0.15002595 1.0636072 0.48031485
0.22237748 -0.5548247 -0.15944812 0.19415334 0.7101333 0.2886125 0.17598914 0.2728917
0.97064424 0.26807418 0.53686386 -0.30879095 -0.14164966 0.15394905 -0.051424123 0.71681505

l1.bias f4 [8]
00000000: 037c 1d3f 2b29 4d3f 44a8 423f 448e 903f
00000010: e082 493f b415 913f 0c80 553f df96 363f
0.6151735 0.8014094 0.76038 1.1293416 0.78715324 1.1334748 0.8339851 0.7132396

l2.weight f4 [8, 8]
00000000: fbca 923f 0e7c cd3f 26f7 213f 9d59 a1bf
00000010: d0a8 dc3e 0a73 863e e0e1 35bf 4e41 463f
00000020: 1330 b63f 2f7c a43e 4511 083e f148 a3bf
00000030: fcc7 f23c 9a69 91be 6e77 b93f b5c0 433f
00000040: b5fd 8c3f 7998 1e3e e8c7 96bf 150c 4bbe
00000050: 043e ef3f 5f6b a63f 9328 6ebf f946 683f
00000060: 88ee e5bd 3b34 793f 1ee5 6d3f 80d5 32bf
00000070: c7da 8cbe 543e e93f e84e 9f3f bf42 4bbf
00000080: d81e 2b3f a3e9 1d3f a7b2 d23d 0b4f 1c3f
00000090: 1a0c bcbe 8283 17be e827 c2bf e02b 8d3f
000000a0: e732 4a3f 1e3b e73f e02f 423e 2f71 b8be
000000b0: fb39 513d 43e6 653e 8097 88bf 6a09 903f
000000c0: 77d2 f43e 4c13 26bd 543d fa3f 81b5 bebe
000000d0: b72d bbbf e7a5 2b3f 2cd4 283f 806f 903f
000000e0: 4482 c5bf 6574 823f 49be 163f 570a f33f
000000f0: 7b6b 023f db8c 8e3f 9f0c 783f c708 3abf
1.1468195 1.6053483 0.63267744 -1.2605473 0.43097544 0.26259643 -0.7104778 0.774434
1.4233421 0.32125995 0.13287838 -1.2756635 0.029636376 -0.2840088 1.4489572 0.7646592
1.1014925 0.15487851 -1.1779757 -0.19828828 1.8690801 1.3001517 -0.9303066 0.90733296
-0.11227137 0.9734532 0.9292773 -0.69857025 -0.27510664 1.8222146 1.2445955 -0.7939872
0.6684394 0.61684626 0.102879815 0.6105811 -0.36727983 -0.1479626 -1.5168428 1.1029015
0.7898392 1.8064916 0.18963575 -0.36023852 0.051080685 0.22451119 -1.0671234 1.1252873
0.47816822 -0.040545747 1.9549966 -0.37247851 -1.4623326 0.6705002 0.6594875 1.1284027
-1.5430379 1.0191771 0.588841 1.898753 0.5094525 1.1136736 0.9689426 -0.72669643

l2.bias f4 [8]
00000000: 28fa ce3d ef37 2d3e 6be2 753f c6f7 853e
00000010: 9ac4 a2be 5bf2 45bd d8e9 f93d 9e4c 7d3f
0.10106307 0.16915868 0.9604861 0.261656 -0.3179062 -0.04832683 0.12202805 0.98945034

l3.weight f4 [11, 8]
00000000: c971 f1bf 4d2f 22c0 2ba2 433f c38e a5bf
00000010: cd30 ba3f b84f 9fbe 2186 52bf c7f4 c93e
00000020: ce27 e4be 6317 213f e5ac cdbf 61d4 003f
00000030: 6e23 81bf c4a9 99bf e220 443f 5982 eebe
00000040: 7425 9fbf f9f5 07c0 97ff c4bf 7c48 273f
00000050: 1ac7 05c0 db2f 95bf 6a02 d63e e32c fb3e
00000060: 52b0 dfbf 1f58 2cc0 2bbb 303e bbbb 313f
00000070: edd9 1ec0 6f62 edbf 3f9e e6bf 3471 213f
00000080: c982 863e 9f13 11be fc76 95bd 3fe9 9abf
00000090: 50cb 5f3f 8e9a 753f 375e dcbf 73ee 2bbf
000000a0: 7eb0 983e b84c 0fc0 7f17 b7be 5f71 8b3e
000000b0: 8180 63bf 3b54 ae3e 31a2 1c3e 140b abbd
000000c0: 7408 5a3e 1e72 ea3e a357 1cbf 92f3 123f
000000d0: dd1e e3bf 4422 933e ad88 28be e7a1 61bf
000000e0: c8c9 19bd c5a3 a3bf cdc0 253f 8048 fe3e
000000f0: 0266 03c0 975c 283e ae47 f0bf 786e b1be
00000100: ee65 cd3e c3f1 fe3e 8456 5c3f 8c1a 87bf
00000110: 6926 ecbf 5c8c c0bd a1e2 7cbf eac7 cebf
00000120: 1801 5bbf e42c 3fbf cd70 b6bf 54d3 9ebf
00000130: 3879 93bf c9fb 66bf 8a98 8cbf 46fe b03f
00000140: f1fe 1b3e c29d 07bf b763 99be a26b a6be
00000150: 0b26 643f bfad d03e 532d 183f a531 acbf
-1.886285 -2.534137 0.76419324 -1.2934192 1.4546143 -0.31115508 -0.82235914 0.39444563
-0.4456162 0.6292631 -1.6068388 0.50324064 -1.0088937 -1.2004933 0.76612675 -0.46583822
-1.2433305 -2.124388 -1.53905 0.6534498 -2.0902772 -1.1655229 0.41798717 0.49057683
-1.7475684 -2.6928785 0.17258899 0.6942708 -2.4820511 -1.8545665 -1.8017043 0.6306336
0.26271656 -0.14167641 -0.07298085 -1.2102431 0.87419605 0.95938957 -1.7216252 -0.6716072
0.29822153 -2.2390575 -0.35760114 0.27234933 -0.88867956 0.34048638 0.15296246 -0.08351722
0.21292287 0.4579019 -0.61071223 0.5740291 -1.7743794 0.2873708 -0.16458388 -0.8813767
-0.03754595 -1.2784353 0.64747316 0.49664688 -2.053101 0.1644157 -1.8771875 -0.34654593
0.4011683 0.49793825 0.8606951 -1.0554976 -1.8449222 -0.094017714 -0.9878331 -1.6154759
-0.85548544 -0.7467787 -1.4253174 -1.2408242 -1.1521368 -0.90227944 -1.0984051 1.3827598
0.15233971 -0.52975094 -0.2995889 -0.32503992 0.8912055 0.40757558 0.5944416 -1.345265

l3.bias f4 [11]
00000000: 7a73 2b3e 267e 1d3f fc62 2b3c 6946 00be
00000010: bdad 14be 1ff1 15bf 81da 0cbf 0ba1 713e
00000020: e664 753e d044 0a3f 0fce 10bf
0.1674327 0.6152061 0.010460611 -0.1252686 -0.14519401 -0.58571047 -0.5502091 0.2359659
0.23964271 0.5401125 -0.5656442
