data.pth (torch, 3031 bytes, 6 tensors)

l1.weight f4 [8, 11]
0	0x3ee6772b	0.45012793
1	0xbeebe5c3	-0.46073732
2	0xbee81f08	-0.45336175
3	0x3eeac038	0.45849776
4	0x3ef28a4a	0.4737113
5	0x3efecec0	0.49767113
6	0x3e7cf17d	0.24701495
7	0xbee9927e	-0.45619577
8	0xbef3aee0	-0.47594357
9	0xbd7a4423	-0.061100136
10	0x3ed03b91	0.40670446
11	0x3f0e2c30	0.55536175
12	0x3f08f958	0.5350547
13	0x3f0b4187	0.5439686
14	0x3ef51018	0.4786384
15	0x3f1c2215	0.60989505
16	0x3e32a64f	0.17446254
17	0x3ecc2b19	0.3987663
18	0x3d7ccf01	0.06172085
19	0x3e2867c8	0.1644584
20	0xbef16b7f	-0.47152326
21	0x3e077fb0	0.13232303
22	0x3ea3c5cf	0.31986853
23	0xbe6def5e	-0.23235843
24	0xbe6e461f	-0.23268937
25	0x3e33c408	0.17555249
26	0x3ec27116	0.37976903
27	0x3efa2bf4	0.4886166
28	0x3eda6a77	0.4265935
29	0xbdb22815	-0.08699051
30	0xbdf71939	-0.12065358
31	0x3f522d8e	0.8210076
32	0x3bb46484	0.0055051465
33	0xbe0a40c5	-0.1350127
34	0xbee98df6	-0.4561612
35	0xbeee4682	-0.46538168
36	0x3edd636a	0.4323991
37	0x3eed030a	0.4629138
38	0x3e95dd9f	0.29270646
39	0xbe18a000	-0.14904785
40	0xbe6a2085	-0.22863968
41	0x3e23308d	0.1593649
42	0xbdcfaada	-0.10140009
43	0xbeda04d9	-0.42581823
44	0x3ee9e04d	0.4567894
45	0xbe0735d1	-0.13204123
46	0xbe4cbcd7	-0.19993912
47	0x3ebe8963	0.37214193
48	0x3f2f14e6	0.68391263
49	0x3f197632	0.59945977
50	0x3ec25413	0.3795477
51	0xbe39bd7d	-0.1813869
52	0xbe02aabf	-0.12760447
53	0xbeb46283	-0.35231408
54	0xbdbd8bac	-0.09255156
55	0x3e97b577	0.29630634
56	0x3cab679e	0.020923432
57	0xbd940ec5	-0.072293796
58	0x3f1b1aef	0.6058797
59	0x3efaee07	0.49009725
60	0x3ef36854	0.47540534
61	0x3ebacf86	0.36486453
62	0x3d22e206	0.039766334
63	0xbe4690c5	-0.19391163
64	0xbef36960	-0.47541332
65	0xbb2b9a43	-0.0026184476
66	0x3ee5d8bc	0.44891918
67	0xbe84cac7	-0.25935957
68	0xbe861d13	-0.26194057
69	0x3f2b6869	0.6695619
70	0x3f1ab5d1	0.6043368
71	0x3eb2ccec	0.34921968
72	0x3e788940	0.24271107
73	0xbea85f2f	-0.3288512
74	0xbee71fd2	-0.45141464
75	0x3ec9b3ed	0.39395085
76	0x3ef3e58e	0.47636074
77	0xbeba965d	-0.36442843
78	0x3ee1b37a	0.44082242
79	0x3e9dae41	0.30797008
80	0xbef2a520	-0.47391605
81	0xbe600697	-0.21877514
82	0xbf078dbe	-0.52950656
83	0xbe7f1278	-0.24909389
84	0x3ee9829f	0.45607468
85	0x3e50b8aa	0.20382944
86	0x3f1dc237	0.61624473
87	0x3eb05b0e	0.3444447

l1.bias f4 [8]
0	0x3ee98d08	0.4561541
1	0x3eff099b	0.49812016
2	0x3e689cd7	0.2271608
3	0x3ee90511	0.45511678
4	0x3eb11646	0.34587306
5	0x3f029cdd	0.51020604
6	0x3e858b3a	0.26082784
7	0x3f0859c5	0.5326198

l2.weight f4 [8, 8]
0	0xbe9dc262	-0.30812365
1	0x3f05e477	0.52301735
2	0x3e3e6e2e	0.18596718
3	0xbd5b321a	-0.053514577
4	0xbe05372e	-0.1300933
5	0x3ebc15dc	0.36735427
6	0xbf034194	-0.5127194
7	0x3e758266	0.23975524
8	0x3edefb8c	0.4355129
9	0x3f855418	1.0416288
10	0xbeeb2a13	-0.45930538
11	0x3f06a63f	0.5259742
12	0x3f80dd62	1.0067561
13	0x3fa4c9ec	1.2874122
14	0x3d8cf9ad	0.068835594
15	0xbe1daefe	-0.15398785
16	0x3d30a9f8	0.043130845
17	0xbe45a243	-0.19300179
18	0xbdcd61a8	-0.10028392
19	0x3e8220cb	0.25415644
20	0xbdec3288	-0.115330756
21	0xbe951531	-0.2911773
22	0xbdc25704	-0.09489253
23	0xbdcd3d80	-0.10021496
24	0x3f0ef3a0	0.5584049
25	0x3e8f05e4	0.27934182
26	0x3e2a6e66	0.16643676
27	0x3ef6d9ed	0.4821314
28	0x3f237a2d	0.638583
29	0x3f112acc	0.5670593
30	0x3ee080e0	0.43848324
31	0xbf53bb82	-0.8270799
32	0x3fa39fdb	1.2783159
33	0xbe8c6056	-0.27417248
34	0x3fb9754c	1.4488921
35	0x3f97fc9b	1.1873964
36	0x3f349836	0.70544755
37	0x3ebdcdb3	0.37071
38	0x3faec9d3	1.3655342
39	0xbe6b4178	-0.22974193
40	0xbe79b126	-0.24383983
41	0xbde5a0ad	-0.11212287
42	0xbe9e9406	-0.30972308
43	0xbe249cbe	-0.16075417
44	0x3dc58ff0	0.096465945
45	0x3d4a2dbd	0.049360026
46	0x3d4b71fe	0.04966926
47	0xbe8e7958	-0.27826953
48	0xbe37b62c	-0.17940587
49	0xbd401d78	-0.046903104
50	0x3daae6ef	0.08344828
51	0x3e7afbd7	0.24510132
52	0x3e753296	0.23945078
53	0xbd0d899e	-0.03455507
54	0xbe10810a	-0.14111724
55	0xbe6c62c0	-0.23084545
56	0x3eb16ac6	0.34651774
57	0x3e70f1ea	0.23529783
58	0x3e955a90	0.29170656
59	0x3e407d6d	0.18797846
60	0x3f132eef	0.5749349
61	0x3ed228f2	0.41046864
62	0x3e731989	0.2374021
63	0xbf19157a	-0.59798396

l2.bias f4 [8]
0	0xbd6465f8	-0.055761307
1	0x3e8ebb33	0.27877197
2	0xbea564fb	-0.32303604
3	0x3d6470d0	0.05577165
4	0x3e22220f	0.15833305
5	0x3e1f9b67	0.15586625
6	0xbe5b7bd9	-0.21433963
7	0xbc5b3e8a	-0.01338161

l3.weight f4 [3, 8]
0	0x3eccbf81	0.39989856
1	0x3f803d0e	1.0018632
2	0xbdbd1b14	-0.0923368
3	0x3b0af041	0.0021200331
4	0xbf410190	-0.7539301
5	0xbe7f55cd	-0.24935074
6	0xbd88b76e	-0.066756114
7	0xbd5103a5	-0.051028866
8	0xbeaeee26	-0.34166068
9	0x3f08b891	0.53406626
10	0x3eafa7a9	0.34307602
11	0x3f44a79b	0.76818246
12	0x3ebf996e	0.37421745
13	0xbe940c03	-0.28915414
14	0xbdd17832	-0.102280036
15	0x3f1945b4	0.59871984
16	0xbea2b418	-0.31778026
17	0xbf9bc006	-1.2167976
18	0xbe1c4b27	-0.15263043
19	0xbbffbe9e	-0.0078047058
20	0x3f918822	1.136967
21	0xbeb1f59a	-0.34757692
22	0x3e37099a	0.17874756
23	0xbe4938ea	-0.19650617

l3.bias f4 [3]
0	0x3f75edcf	0.9606599
1	0xbf029cb7	-0.5102038
2	0x3ea2a7a8	0.31768537
